Model
Model: "sequential"
________________________________________________________________________________
Layer (type)                        Output Shape                    Param #     
================================================================================
conv2d (Conv2D)                     (None, 24, 24, 20)              520         
________________________________________________________________________________
max_pooling2d (MaxPooling2D)        (None, 12, 12, 20)              0           
________________________________________________________________________________
conv2d_1 (Conv2D)                   (None, 8, 8, 50)                25050       
________________________________________________________________________________
max_pooling2d_1 (MaxPooling2D)      (None, 4, 4, 50)                0           
________________________________________________________________________________
flatten (Flatten)                   (None, 800)                     0           
________________________________________________________________________________
dropout (Dropout)                   (None, 800)                     0           
________________________________________________________________________________
dense (Dense)                       (None, 500)                     400500      
________________________________________________________________________________
dense_1 (Dense)                     (None, 10)                      5010        
================================================================================
Total params: 431,080
Trainable params: 431,080
Non-trainable params: 0
________________________________________________________________________________


